…
2022-10-14 00:01:36 | INFO | fairseq.data.data_utils | loaded 642 examples from: data-bin/phoenix2014T/sp25000/test.sign-de.de
2022-10-14 00:01:36 | INFO | fairseq.tasks.translation_sign | data-bin/phoenix2014T/sp25000 test sign-de 642 examples
2022-10-14 00:01:36 | INFO | root | Loaded pretrained embeddings from data-bin/phoenix2014T/sp25000/emb
2022-10-14 00:01:37 | INFO | fairseq_cli.train | TransformerModel(
  (encoder): TransformerEncoderSign(
    (embed_positions): LearnedPositionalEmbedding(1025, 1024, padding_idx=0)
    (layers): ModuleList(
      (0): TransformerEncoderLayer(
        (self_attn): MultiheadAttention(
          (k_proj): Linear(in_features=1024, out_features=1024, bias=True)
          (v_proj): Linear(in_features=1024, out_features=1024, bias=True)
          (q_proj): Linear(in_features=1024, out_features=1024, bias=True)
          (out_proj): Linear(in_features=1024, out_features=1024, bias=True)
        )
        (self_attn_layer_norm): LayerNorm((1024,), eps=1e-05, elementwise_affine=True)
        (fc1): Linear(in_features=1024, out_features=2048, bias=True)
        (fc2): Linear(in_features=2048, out_features=1024, bias=True)
        (final_layer_norm): LayerNorm((1024,), eps=1e-05, elementwise_affine=True)
      )
    )
  )
  (decoder): TransformerDecoder(
    (embed_tokens): Embedding(2656, 300, padding_idx=1)
    (embed_positions): LearnedPositionalEmbedding(1026, 300, padding_idx=1)
    (layers): ModuleList(
      (0): TransformerDecoderLayer(
        (self_attn): MultiheadAttention(
          (k_proj): Linear(in_features=300, out_features=300, bias=True)
          (v_proj): Linear(in_features=300, out_features=300, bias=True)
          (q_proj): Linear(in_features=300, out_features=300, bias=True)
          (out_proj): Linear(in_features=300, out_features=300, bias=True)
        )
        (self_attn_layer_norm): LayerNorm((300,), eps=1e-05, elementwise_affine=True)
        (encoder_attn): MultiheadAttention(
          (k_proj): Linear(in_features=1024, out_features=300, bias=True)
          (v_proj): Linear(in_features=1024, out_features=300, bias=True)
          (q_proj): Linear(in_features=300, out_features=300, bias=True)
          (out_proj): Linear(in_features=300, out_features=300, bias=True)
        )
        (encoder_attn_layer_norm): LayerNorm((300,), eps=1e-05, elementwise_affine=True)
        (fc1): Linear(in_features=300, out_features=2048, bias=True)
        (fc2): Linear(in_features=2048, out_features=300, bias=True)
        (final_layer_norm): LayerNorm((300,), eps=1e-05, elementwise_affine=True)
      )
      (1): TransformerDecoderLayer(
        (self_attn): MultiheadAttention(
          (k_proj): Linear(in_features=300, out_features=300, bias=True)
          (v_proj): Linear(in_features=300, out_features=300, bias=True)
          (q_proj): Linear(in_features=300, out_features=300, bias=True)
          (out_proj): Linear(in_features=300, out_features=300, bias=True)
        )
        (self_attn_layer_norm): LayerNorm((300,), eps=1e-05, elementwise_affine=True)
        (encoder_attn): MultiheadAttention(
          (k_proj): Linear(in_features=1024, out_features=300, bias=True)
          (v_proj): Linear(in_features=1024, out_features=300, bias=True)
          (q_proj): Linear(in_features=300, out_features=300, bias=True)
          (out_proj): Linear(in_features=300, out_features=300, bias=True)
        )
        (encoder_attn_layer_norm): LayerNorm((300,), eps=1e-05, elementwise_affine=True)
        (fc1): Linear(in_features=300, out_features=2048, bias=True)
        (fc2): Linear(in_features=2048, out_features=300, bias=True)
        (final_layer_norm): LayerNorm((300,), eps=1e-05, elementwise_affine=True)
      )
      (2): TransformerDecoderLayer(
        (self_attn): MultiheadAttention(
          (k_proj): Linear(in_features=300, out_features=300, bias=True)
          (v_proj): Linear(in_features=300, out_features=300, bias=True)
          (q_proj): Linear(in_features=300, out_features=300, bias=True)
          (out_proj): Linear(in_features=300, out_features=300, bias=True)
        )
        (self_attn_layer_norm): LayerNorm((300,), eps=1e-05, elementwise_affine=True)
        (encoder_attn): MultiheadAttention(
          (k_proj): Linear(in_features=1024, out_features=300, bias=True)
          (v_proj): Linear(in_features=1024, out_features=300, bias=True)
          (q_proj): Linear(in_features=300, out_features=300, bias=True)
          (out_proj): Linear(in_features=300, out_features=300, bias=True)
        )
        (encoder_attn_layer_norm): LayerNorm((300,), eps=1e-05, elementwise_affine=True)
        (fc1): Linear(in_features=300, out_features=2048, bias=True)
        (fc2): Linear(in_features=2048, out_features=300, bias=True)
        (final_layer_norm): LayerNorm((300,), eps=1e-05, elementwise_affine=True)
      )
      (3): TransformerDecoderLayer(
        (self_attn): MultiheadAttention(
          (k_proj): Linear(in_features=300, out_features=300, bias=True)
          (v_proj): Linear(in_features=300, out_features=300, bias=True)
          (q_proj): Linear(in_features=300, out_features=300, bias=True)
          (out_proj): Linear(in_features=300, out_features=300, bias=True)
        )
        (self_attn_layer_norm): LayerNorm((300,), eps=1e-05, elementwise_affine=True)
        (encoder_attn): MultiheadAttention(
          (k_proj): Linear(in_features=1024, out_features=300, bias=True)
          (v_proj): Linear(in_features=1024, out_features=300, bias=True)
          (q_proj): Linear(in_features=300, out_features=300, bias=True)
          (out_proj): Linear(in_features=300, out_features=300, bias=True)
        )
        (encoder_attn_layer_norm): LayerNorm((300,), eps=1e-05, elementwise_affine=True)
        (fc1): Linear(in_features=300, out_features=2048, bias=True)
        (fc2): Linear(in_features=2048, out_features=300, bias=True)
        (final_layer_norm): LayerNorm((300,), eps=1e-05, elementwise_affine=True)
      )
      (4): TransformerDecoderLayer(
        (self_attn): MultiheadAttention(
          (k_proj): Linear(in_features=300, out_features=300, bias=True)
          (v_proj): Linear(in_features=300, out_features=300, bias=True)
          (q_proj): Linear(in_features=300, out_features=300, bias=True)
          (out_proj): Linear(in_features=300, out_features=300, bias=True)
        )
        (self_attn_layer_norm): LayerNorm((300,), eps=1e-05, elementwise_affine=True)
        (encoder_attn): MultiheadAttention(
          (k_proj): Linear(in_features=1024, out_features=300, bias=True)
          (v_proj): Linear(in_features=1024, out_features=300, bias=True)
          (q_proj): Linear(in_features=300, out_features=300, bias=True)
          (out_proj): Linear(in_features=300, out_features=300, bias=True)
        )
        (encoder_attn_layer_norm): LayerNorm((300,), eps=1e-05, elementwise_affine=True)
        (fc1): Linear(in_features=300, out_features=2048, bias=True)
        (fc2): Linear(in_features=2048, out_features=300, bias=True)
        (final_layer_norm): LayerNorm((300,), eps=1e-05, elementwise_affine=True)
      )
      (5): TransformerDecoderLayer(
        (self_attn): MultiheadAttention(
          (k_proj): Linear(in_features=300, out_features=300, bias=True)
          (v_proj): Linear(in_features=300, out_features=300, bias=True)
          (q_proj): Linear(in_features=300, out_features=300, bias=True)
          (out_proj): Linear(in_features=300, out_features=300, bias=True)
        )
        (self_attn_layer_norm): LayerNorm((300,), eps=1e-05, elementwise_affine=True)
        (encoder_attn): MultiheadAttention(
          (k_proj): Linear(in_features=1024, out_features=300, bias=True)
          (v_proj): Linear(in_features=1024, out_features=300, bias=True)
          (q_proj): Linear(in_features=300, out_features=300, bias=True)
          (out_proj): Linear(in_features=300, out_features=300, bias=True)
        )
        (encoder_attn_layer_norm): LayerNorm((300,), eps=1e-05, elementwise_affine=True)
        (fc1): Linear(in_features=300, out_features=2048, bias=True)
        (fc2): Linear(in_features=2048, out_features=300, bias=True)
        (final_layer_norm): LayerNorm((300,), eps=1e-05, elementwise_affine=True)
      )
    )
  )
)
2022-10-14 00:01:37 | INFO | fairseq_cli.train | model transformer_sign, criterion LabelSmoothedCrossEntropyCriterion
2022-10-14 00:01:37 | INFO | fairseq_cli.train | num. model params: 25689360 (num. trained: 25689360)
2022-10-14 00:01:42 | INFO | fairseq_cli.train | training on 1 GPUs
2022-10-14 00:01:42 | INFO | fairseq_cli.train | max tokens per GPU = 4096 and max sentences per GPU = None
…
